best_models/conv2d1d.pt (torch, 188731 bytes, 19 tensors)

spatial_extractor.0.weight f4 [32, 3, 3, 3]
2.6428914 2.646288 2.494327 2.6093683 2.3694463 2.5273275 2.4350467 2.6226134
2.548563 2.600573 2.6221054 2.5680451 2.498892 2.3255982 2.6479278 2.5405736
2.395653 2.481574 -2.3528209 -2.49424 -2.4857497 -2.391014 -2.6939235 -2.4992604
-2.6576295 -2.3154664 -2.3559475 2.6546674 2.4998813 2.6525326 2.5075965 2.360494
2.3370366 2.431176 2.497821 2.6474793 2.5159025 2.3910418 2.35773 2.6590621
2.4039493 2.372227 2.52315 2.5416372 2.4629648 -2.567668 -2.468748 -2.6455667
-2.4712493 -2.6427705 -2.6465926 -2.3216658 -2.4240646 -2.6471784 -2.5715334 -2.346784
-2.6449497 -2.3509426 -2.5750656 -2.6891866 -2.4300222 -2.3173556 -2.3590417 -2.6254625
-2.503829 -2.6415944 -2.6090207 -2.657536 -2.550566 -2.4958344 -2.5965638 -2.363022
2.4601955 2.5175495 2.353257 2.6005254 2.3413472 2.4630919 2.4100986 2.6004825
2.379943 -2.4829943 -2.5386486 -2.4848313 -2.5056553 -2.3806965 -2.665897 -2.4572868
-2.4458854 -2.4765234 -2.657428 -2.4670224 -2.3172898 -2.654552 -2.4842772 -2.3743768
-2.5912457 -2.616558 -2.3388166 2.4954925 2.6821432 2.6923194 2.4559107 2.4452407
2.4521747 2.3933058 2.5225046 2.4446602 -2.5020247 -2.3930278 -2.329575 -2.5660174
-2.5320559 -2.5720396 -2.658296 -2.6591792 -2.585957 -2.482965 -2.358808 -2.62638
-2.3706567 -2.5266824 -2.452573 -2.6707063 -2.5906215 -2.4617307 2.313571 2.5268042
2.3867207 2.4343731 2.3314195 2.4318962 2.6392446 2.3754673 2.3337054 -2.3989244
2.6002932 2.5613918 -2.4493432 2.4602623 -2.4945607 -2.4651027 2.4731455 2.6880136
-2.4200103 -2.5194974 -2.351552 -2.350555 -2.5360613 -2.4558303 -2.5853734 -2.403401
-2.6514397 -2.6118288 -2.5876424 -2.4961877 -2.3650942 -2.6919997 -2.3210402 -2.4999108
-2.6565425 -2.4759333 2.6925652 2.446433 2.365705 2.6686153 2.6264472 2.3708975
2.5794358 2.5126262 2.5588627 -2.5241065 2.44389 -2.4852753 -2.6004863 -2.3747501
-2.5343132 2.4976707 2.473763 -2.5724566 -2.5398688 -2.609227 -2.3240964 -2.3676605
-2.5703914 -2.5580475 -2.4231877 -2.578645 -2.5702446 -2.580462 -2.364075 -2.4066107
2.6529303 -2.4705229 -2.541798 2.6225388 -2.4082184 -2.5699952 -2.4525387 -2.6020312
-2.5896597 -2.4467463 -2.6528966 -2.415268 -2.458767 -2.6434832 -2.4660711 -2.3473775
-2.5616868 -2.3409555 -2.38142 -2.3270369 -2.5938845 -2.4962926 -2.512353 -2.5667582
2.3393018 2.5583715 2.6429133 2.5578184 2.427829 2.6833894 2.5917425 2.6038394
2.4911807 2.503814 2.3843446 2.5476384 2.6082327 2.3342524 2.518714 2.3328228
2.3662095 2.6748977 -2.38393 -2.4435115 -2.5611658 -2.4267697 -2.3486443 -2.413296
-2.3743582 -2.3800416 -2.4971888 -2.3226876 -2.690796 -2.6700945 2.6647837 -2.4240413
-2.3377013 2.6326084 -2.6589737 -2.3477845 2.5582175 2.5513968 -2.6691294 2.442158
00000000: 2225 2940 c85c 2940 0ea3 1f40 e4ff 2640
00000010: 02a5 1740 bcbf 2140 ced7 1b40 e6d8 2740
00000020: a81b 2340 ca6f 2640 93d0 2740 da5a 2440
00000030: d9ed 1f40 9ad6 1440 a677 2940 c298 2240
00000040: 6152 1940 1cd2 1e40 9e94 16c0 a1a1 1fc0
00000050: 8616 1fc0 6006 19c0 3e69 2cc0 e2f3 1fc0
00000060: 9a16 2ac0 9a30 14c0 d8c7 16c0 12e6 2940
00000070: 0efe 1f40 18c3 2940 767c 2040 5512 1740
00000080: 0292 1540 6398 1b40 4ddc 1f40 4d70 2940
00000090: 8c04 2140 d406 1940 0ce5 1640 132e 2a40
000000a0: 4eda 1940 91d2 1740 4a7b 2140 2faa 2240
000000b0: 37a1 1d40 ac54 24c0 f8ff 1dc0 f750 29c0
000000c0: f328 1ec0 2723 29c0 c661 29c0 2c96 14c0
000000d0: e023 1bc0 5f6b 29c0 0194 24c0 b631 16c0
000000e0: db46 29c0 d875 16c0 e0cd 24c0 a21b 2cc0
000000f0: 7c85 1bc0 8e4f 14c0 8afa 16c0 9407 28c0
00000100: bc3e 20c0 e20f 29c0 32fa 26c0 1215 2ac0
00000110: 793c 23c0 c0bb 1fc0 1a2e 26c0 c13b 17c0
00000120: d873 1d40 881f 2140 c39b 1640 026f 2640
00000130: a2d8 1540 4ca3 1d40 0e3f 1a40 4e6e 2640
00000140: fc50 1840 61e9 1ec0 3879 22c0 7a07 1fc0
00000150: a85c 20c0 555d 18c0 0e9e 2ac0 3044 1dc0
00000160: 6389 1cc0 5c7f 1ec0 4d13 2ac0 b2e3 1dc0
00000170: 7a4e 14c0 2ee4 29c0 66fe 1ec0 caf5 17c0
00000180: f8d6 25c0 b075 27c0 2caf 15c0 26b6 1f40
00000190: 3ca8 2b40 f64e 2c40 a42d 1d40 d37e 1c40
000001a0: 6ef0 1c40 ec2b 1940 b770 2140 5075 1c40
000001b0: 2c21 20c0 5e27 19c0 c217 15c0 a139 24c0
000001c0: 340d 22c0 4c9c 24c0 8621 2ac0 fe2f 2ac0
000001d0: 5280 25c0 e6e8 1ec0 b6f6 16c0 9c16 28c0
000001e0: d7b8 17c0 2ab5 21c0 f5f6 1cc0 daec 2ac0
000001f0: becc 25c0 ff8c 1dc0 8c11 1440 29b7 2140
00000200: 08c0 1840 c5cc 1b40 fa35 1540 30a4 1b40
00000210: 62e9 2840 a807 1840 6e5b 1540 fa87 19c0
00000220: 346b 2640 d8ed 2340 0ac2 1cc0 f074 1d40
00000230: e2a6 1fc0 3ec4 1dc0 0448 1e40 6a08 2c40
00000240: 73e1 1ac0 723f 21c0 d47f 16c0 7e6f 16c0
00000250: d44e 22c0 532c 1dc0 c276 25c0 52d1 19c0
00000260: 30b1 29c0 3428 27c0 ef9b 25c0 8ac1 1fc0
00000270: b45d 17c0 b949 2cc0 ec8b 14c0 8afe 1fc0
00000280: cb04 2ac0 b175 1ec0 fd52 2c40 5c92 1c40
00000290: b667 1740 98ca 2a40 b617 2840 c9bc 1740
000002a0: 7a15 2540 dece 2040 68c4 2340 f68a 21c0
000002b0: b268 1c40 c00e 1fc0 5e6e 26c0 e8fb 17c0
000002c0: 3032 22c0 d6d9 1f40 2252 1e40 21a3 24c0
000002d0: 368d 22c0 93fd 26c0 ffbd 14c0 c087 17c0
000002e0: 4b81 24c0 0db7 23c0 8215 1bc0 8508 25c0
000002f0: e37e 24c0 4a26 25c0 014d 17c0 e905 1ac0
00000300: 9cc9 2940 0c1d 1ec0 d2ac 22c0 add7 2740
00000310: 4020 1ac0 cd7a 24c0 65f6 1cc0 ae87 26c0
00000320: fcbc 25c0 7e97 1cc0 0fc9 29c0 c093 1ac0
00000330: 705c 1dc0 d42e 29c0 1cd4 1dc0 6f3b 16c0
00000340: adf2 23c0 37d2 15c0 2f69 18c0 2cee 14c0
00000350: 3402 26c0 42c3 1fc0 64ca 20c0 c445 24c0
00000360: 1fb7 1540 5cbc 2340 7e25 2940 4cb3 2340
00000370: 8d61 1b40 a7bc 2b40 1cdf 2540 4ea5 2640
00000380: 816f 1f40 7d3e 2040 1a99 1840 820c 2340
00000390: 49ed 2640 6464 1540 9c32 2140 f84c 1540
000003a0: fa6f 1740 8631 2b40 4f92 18c0 7e62 1cc0
000003b0: 24ea 23c0 3250 1bc0 3050 16c0 7173 1ac0
000003c0: 7cf5 17c0 9a52 18c0 f1d1 1fc0 eaa6 14c0
000003d0: 0036 2cc0 d4e2 2ac0 d18b 2a40 7e23 1bc0
000003e0: e69c 15c0 a87c 2840 a02c 2ac0 1a42 16c0
000003f0: d6b9 2340 164a 2340 04d3 2ac0 514c 1c40

spatial_extractor.0.bias f4 [32]
2.599698 2.6396203 -2.6704688 -2.6149626 -2.4947948 -2.4371781 -2.428379 -2.6585865
-2.4848835 2.6273174 -2.5260563 -2.6348405 -2.5892367 2.5944145 2.5615077 2.6358018
-2.549173 -2.4142969 2.5402656 2.264257 2.3795252 -2.582945 2.6827745 2.3173327
2.5122747 2.4824371 2.3547053 2.4626389 2.4537163 -2.4404068 -2.6494126 2.4762602
00000000: 7461 2640 8aef 2840 f6e8 2ac0 8c5b 27c0
00000010: b8aa 1fc0 bafa 1bc0 906a 1bc0 4826 2ac0
00000020: 5508 1fc0 f825 2840 e8aa 21c0 3aa1 28c0
00000030: 0eb6 25c0 e30a 2640 beef 2340 fab0 2840
00000040: a725 23c0 d783 1ac0 b693 2240 96e9 1040
00000050: 244a 1840 f94e 25c0 94b2 2b40 2e4f 1440
00000060: 1cc9 2040 40e0 1e40 7eb3 1640 e09b 1d40
00000070: b009 1d40 a02f 1cc0 fa8f 29c0 0c7b 1e40

spatial_extractor.1.weight f4 [32]
3.5050712 3.5050864 3.5050797 -1.5050851 3.5050826 3.5050845 -1.505077 3.5050821
-1.5050852 3.5050712 -1.505084 3.505066 3.5050778 3.505085 -1.5050687 3.505063
3.5050855 3.5050797 -1.5050832 3.5050752 3.5050607 3.505071 -1.5050863 -1.5050818
-1.5050858 3.5050864 -1.5050861 -1.5050802 -1.5050844 3.5050864 -1.5050857 3.5048676
00000000: 1653 6040 5653 6040 3a53 6040 a1a6 c0bf
00000010: 4653 6040 4e53 6040 5da6 c0bf 4453 6040
00000020: a2a6 c0bf 1653 6040 98a6 c0bf 0053 6040
00000030: 3253 6040 5053 6040 17a6 c0bf f452 6040
00000040: 5253 6040 3a53 6040 91a6 c0bf 2753 6040
00000050: ea52 6040 1553 6040 aba6 c0bf 85a6 c0bf
00000060: a7a6 c0bf 5653 6040 a9a6 c0bf 78a6 c0bf
00000070: 9ba6 c0bf 5653 6040 a6a6 c0bf c04f 6040

spatial_extractor.1.bias f4 [32]
-2.5050683 2.5050838 -2.5050828 -2.5050855 2.505086 2.5050826 -2.5050845 2.5050845
-2.505084 2.5050852 -2.5050614 -2.505079 2.5050764 2.5050852 -2.5050845 -2.5050764
2.505083 -2.5050821 2.505084 -2.5050788 2.5050783 -2.5050845 2.5050812 -2.5050812
-2.505085 2.5050693 -2.505086 -2.5050807 -2.505085 2.5050845 -2.505073 2.5050807
00000000: 0a53 20c0 4b53 2040 4753 20c0 5253 20c0
00000010: 5453 2040 4653 2040 4e53 20c0 4e53 2040
00000020: 4c53 20c0 5153 2040 ed52 20c0 3753 20c0
00000030: 2c53 2040 5153 2040 4e53 20c0 2c53 20c0
00000040: 4853 2040 4453 20c0 4c53 2040 3653 20c0
00000050: 3453 2040 4e53 20c0 4053 2040 4053 20c0
00000060: 5053 20c0 0e53 2040 5453 20c0 3e53 20c0
00000070: 5053 20c0 4e53 2040 1e53 20c0 3e53 2040

spatial_extractor.1.running_mean f4 [32]
-0.7594391 -0.7353106 0.7396251 0.74272954 0.77040905 0.0014746459 -0.688593 0.37328476
-1.0608294 0.3262242 -0.49166512 -0.71053445 0.6519887 0.76304734 -0.6645556 1.0000721
0.6616513 0.65821964 0.5056861 0.46129215 0.94965833 -0.9904063 -0.6387044 -0.8008197
-0.6605987 0.9676669 0.9396191 -0.5342557 -0.6778112 -0.93455356 0.7383741 0.95859134
00000000: 9a6a 42bf 513d 3cbf 1258 3d3f 8623 3e3f
00000010: 8739 453f e848 c13a a147 30bf 2e1f bf3e
00000020: 42c9 87bf dc06 a73e 88bb fbbe 96e5 35bf
00000030: bbe8 263f 1257 433f 5120 2abf 5d02 803f
00000040: fb61 293f 1581 283f a574 013f 7c2e ec3e
00000050: cf1c 733f 448b 7dbf 2282 23bf 8502 4dbf
00000060: ff1c 29bf 05b9 773f e18a 703f fbc4 08bf
00000070: 0985 2dbf e73e 6fbf 1606 3d3f 3e66 753f

spatial_extractor.1.running_var f4 [32]
16.230734 13.939923 15.91141 14.480215 16.613314 37.75636 3.87954 68.24502
16.160248 18.534739 4.0859313 2.9182343 98.70148 3.162913 96.93352 96.050316
97.49027 94.80257 17.402704 14.386083 99.25084 80.438614 96.43795 13.823305
98.318596 96.5413 97.61297 82.73995 96.66492 94.990746 14.848469 96.06376
00000000: 8bd8 8141 ed09 5f41 2395 7e41 f6ae 6741
00000010: 11e8 8441 8306 1742 624a 7840 737d 8842
00000020: 3048 8141 2547 9441 f3bf 8240 5ac4 3a40
00000030: 2867 c542 2b6d 4a40 f6dd c142 c319 c042
00000040: 05fb c242 ea9a bd42 bd38 8b41 652d 6641
00000050: 6e80 c642 92e0 a042 3be0 c042 422c 5d41
00000060: 1fa3 c442 2515 c142 d739 c342 db7a a542
00000070: 7054 c142 43fb bd42 5493 6d41 a520 c042

spatial_extractor.4.weight f4 [64, 32, 3, 3]
-2.541688 -2.4934254 -2.5228748 -2.554926 -2.4993749 -2.562093 -2.5639014 -2.4703135
-2.490622 -2.457107 -2.5359077 -2.4942956 -2.4666631 -2.5006728 -2.5156064 -2.4720201
-2.5021496 -2.529924 -2.4922245 -2.5485787 -2.5605836 -2.4559321 -2.540123 -2.4777474
-2.5480697 -2.5379624 -2.4842901 -2.4963326 -2.5425427 -2.5305748 -2.5613837 -2.5237465
-2.4855914 -2.4757535 -2.4920325 -2.5179121 -2.500656 -2.5534139 -2.4825218 -2.4548569
-2.4645863 -2.506947 -2.4713285 -2.5249443 -2.450171 -2.5156612 -2.5093575 -2.541674
-2.5258272 -2.4707055 -2.546955 -2.5075712 -2.4553955 -2.457437 -2.5206683 -2.489272
-2.5492725 -2.5112839 -2.543267 -2.4479396 -2.4545958 -2.5121183 -2.4471445 -2.5474167
-2.5048609 -2.4705958 -2.462885 -2.4904242 -2.450436 -2.4703033 -2.526064 -2.5508194
-2.488019 -2.5123312 -2.5065322 -2.4631398 -2.5092435 -2.4587674 -2.4945636 -2.5569158
-2.5387897 2.5379083 2.4660754 2.5320854 2.5456905 2.4712758 2.4851255 2.5290656
2.4938166 2.4642935 -2.4940834 -2.4831605 -2.5492773 -2.5592027 -2.5208387 -2.4981127
-2.4504795 -2.4875512 -2.4782877 -2.4633923 -2.5414262 -2.4689503 -2.5124311 -2.5558882
-2.4937444 -2.561308 -2.4997766 -2.5066283 -2.538773 -2.526166 -2.4560704 -2.5514317
-2.5250702 -2.5177007 -2.4685328 -2.5150795 -2.5019338 -2.5590036 -2.5272508 -2.547719
-2.538351 -2.5332046 -2.4807277 -2.4473424 -2.548778 -2.543784 2.5450726 2.5385213
2.4904363 2.5560756 2.4605103 2.46178 2.4843822 2.4552536 2.4953215 -2.5268302
-2.5187345 -2.5076764 -2.5408254 -2.4771361 -2.540492 -2.5067582 -2.508903 -2.4504933
-2.5176957 -2.4929237 -2.447885 -2.5254292 -2.5582666 -2.5411692 -2.5298626 -2.4886472
-2.537218 2.5611243 2.491016 2.5616064 2.5537384 2.5134516 2.494433 2.4888852
2.5515165 2.5357356 -2.4837136 -2.5607007 -2.4793165 -2.5620513 -2.453382 -2.4516985
-2.4768038 -2.454919 -2.480958 -2.530237 -2.4699407 -2.5413945 -2.5252047 -2.5375853
-2.504128 -2.4922159 -2.5333056 -2.56388 -2.4835658 -2.4772336 -2.4594398 -2.5589402
-2.47406 -2.4601543 -2.4769773 -2.509554 -2.5584335 -2.4879315 -2.4800608 -2.500486
-2.5115633 -2.4899487 -2.4732976 -2.5038853 -2.511075 -2.482957 -2.5220528 -2.540412
-2.4779725 -2.5399244 -2.4802227 -2.486181 -2.5382562 -2.4802728 -2.4646082 -2.554391
-2.5058253 -2.4818854 -2.5528913 -2.4491487 -2.4521093 -2.5077763 -2.4922295 -2.5583353
-2.518919 -2.5463555 -2.5546398 -2.5249524 -2.4706771 -2.4829335 -2.529881 -2.5567575
-2.536261 -2.4791536 -2.543025 -2.5512848 -2.4580705 -2.4866312 -2.5110345 -2.454352
-2.4561238 -2.469091 2.4973373 2.4669528 2.449498 2.5617416 2.5413754 2.5394778
2.527975 2.5033824 2.453508 -2.5223083 -2.5148797 -2.5159276 -2.5419183 -2.4691496
-2.4767516 -2.4848528 -2.4556613 -2.5307612 -2.4805083 -2.5305328 -2.520747 -2.5220125
00000000: 04ab 22c0 4894 1fc0 c876 21c0 e883 23c0
00000010: c2f5 1fc0 55f9 23c0 f616 24c0 9e19 1ec0
00000020: 5a66 1fc0 3e41 1dc0 504c 22c0 8aa2 1fc0
00000030: cfdd 1dc0 060b 20c0 b2ff 20c0 9435 1ec0
00000040: 3823 20c0 46ea 21c0 9b80 1fc0 ea1b 23c0
00000050: 9ae0 23c0 fe2d 1dc0 6091 22c0 6a93 1ec0
00000060: 9313 23c0 fa6d 22c0 9cfe 1ec0 eac3 1fc0
00000070: 05b9 22c0 f0f4 21c0 b6ed 23c0 1085 21c0
00000080: ee13 1fc0 bf72 1ec0 767d 1fc0 7925 21c0
00000090: bf0a 20c0 226b 23c0 a3e1 1ec0 601c 1dc0
000000a0: c8bb 1dc0 d271 20c0 3f2a 1ec0 b098 21c0
000000b0: 9acf 1cc0 9800 21c0 5099 20c0 c9aa 22c0
000000c0: 27a7 21c0 0a20 1ec0 5001 23c0 0c7c 20c0
000000d0: 3325 1dc0 a646 1dc0 a152 21c0 3c50 1fc0
000000e0: 4827 23c0 e0b8 20c0 e3c4 22c0 0bab 1cc0
000000f0: 1918 1dc0 8cc6 20c0 049e 1cc0 e008 23c0
00000100: a44f 20c0 3e1e 1ec0 e89f 1dc0 1c63 1fc0
00000110: f2d3 1cc0 7319 1ec0 08ab 21c0 a040 23c0
00000120: b43b 1fc0 09ca 20c0 066b 20c0 15a4 1dc0
00000130: 7297 20c0 725c 1dc0 eea6 1fc0 82a4 23c0
00000140: 887b 22c0 176d 2240 2ed4 1d40 b00d 2240
00000150: 98ec 2240 6229 1e40 4c0c 1f40 36dc 2140
00000160: b19a 1f40 fcb6 1d40 109f 1fc0 1aec 1ec0
00000170: 5c27 23c0 fac9 23c0 6c55 21c0 14e1 1fc0
00000180: a8d4 1cc0 0a34 1fc0 449c 1ec0 38a8 1dc0
00000190: baa6 22c0 4803 1ec0 accb 20c0 ac93 23c0
000001a0: 8299 1fc0 78ec 23c0 57fc 1fc0 996c 20c0
000001b0: 427b 22c0 b4ac 21c0 4230 1dc0 a84a 23c0
000001c0: c09a 21c0 0222 21c0 71fc 1dc0 10f7 20c0
000001d0: af1f 20c0 b7c6 23c0 7abe 21c0 d40d 23c0
000001e0: 5874 22c0 0620 22c0 3ec4 1ec0 42a1 1cc0
000001f0: 2e1f 23c0 5bcd 22c0 78e2 2240 2277 2240
00000200: 4f63 1f40 be96 2340 0079 1d40 ce8d 1d40
00000210: 1e00 1f40 e022 1d40 59b3 1f40 96b7 21c0
00000220: f232 21c0 c57d 20c0 e29c 22c0 6689 1ec0
00000230: 6c97 22c0 ba6e 20c0 de91 20c0 e2d4 1cc0
00000240: ed21 21c0 108c 1fc0 26aa 1cc0 a2a0 21c0
00000250: a4ba 23c0 84a2 22c0 45e9 21c0 ff45 1fc0
00000260: c861 22c0 76e9 2340 ce6c 1f40 5cf1 2340
00000270: 7370 2340 64dc 2040 caa4 1f40 e549 1f40
00000280: 0c4c 2340 7e49 2240 2af5 1ec0 85e2 23c0
00000290: 1fad 1ec0 a6f8 23c0 3604 1dc0 a1e8 1cc0
000002a0: f483 1ec0 651d 1dc0 04c8 1ec0 67ef 21c0
000002b0: 8213 1ec0 35a6 22c0 f49c 21c0 cc67 22c0
000002c0: a243 20c0 7780 1fc0 ae21 22c0 9c16 24c0
000002d0: bef2 1ec0 ff8a 1ec0 7667 1dc0 adc5 23c0
000002e0: 0057 1ec0 2b73 1dc0 cc86 1ec0 889c 20c0
000002f0: 60bd 23c0 453a 1fc0 51b9 1ec0 f607 20c0
00000300: 74bd 20c0 525b 1fc0 824a 1ec0 a83f 20c0
00000310: 74b5 20c0 c4e8 1ec0 5069 21c0 1c96 22c0
00000320: 1a97 1ec0 1f8e 22c0 f8bb 1ec0 971d 1fc0
00000330: ca72 22c0 cabc 1ec0 24bc 1dc0 247b 23c0
00000340: 715f 20c0 36d7 1ec0 9262 23c0 dabe 1cc0
00000350: 5cef 1cc0 687f 20c0 b080 1fc0 c4bb 23c0
00000360: f835 21c0 7df7 22c0 387f 23c0 d298 21c0
00000370: 931f 1ec0 62e8 1ec0 92e9 21c0 eaa1 23c0
00000380: 1a52 22c0 74aa 1ec0 ecc0 22c0 4048 23c0
00000390: 0751 1dc0 f724 1fc0 cab4 20c0 1a14 1dc0
000003a0: 2231 1dc0 9605 1ec0 60d4 1f40 8ee2 1d40
000003b0: 93c4 1c40 93f3 2340 e5a5 2240 ce86 2240
000003c0: 58ca 2140 6b37 2040 4606 1d40 806d 21c0
000003d0: caf3 20c0 f504 21c0 caae 22c0 8c06 1ec0
000003e0: 1983 1ec0 d407 1fc0 8e29 1dc0 fef7 21c0
000003f0: a6c0 1ec0 40f4 21c0 eb53 21c0 a768 21c0

spatial_extractor.4.bias f4 [64]
-2.475648 -2.5409818 -2.4383698 -2.5223582 2.5363202 2.5104218 2.5446057 -2.4410317
-2.4613314 -2.5090404 -1.7071445 -2.4915524 2.4794223 2.4579558 -2.3964243 -2.4394226
-2.5319972 -2.4916525 -2.4772148 2.4694006 2.5454965 2.4608312 2.5223632 -2.3491373
2.5026155 -2.4846013 -2.496052 -2.41918 2.5426154 2.5095932 -2.5554633 -2.5050535
-2.5212295 2.5182695 -2.5298061 2.4707701 2.4676883 2.4942234 -2.5271494 -2.4062724
-2.5370307 2.5256283 2.514966 2.5018463 2.4470708 -2.4605021 -2.4716477 -2.5510273
2.5324485 2.5199645 2.4707353 2.4894285 -2.4821968 -2.455274 2.4952645 -2.4662497
2.5106964 2.52625 -2.5241964 -2.3826516 -2.5259473 2.530611 -2.452014 2.4740748
00000000: 0471 1ec0 729f 22c0 400e 1cc0 516e 21c0
00000010: 1253 2240 c0aa 2040 d2da 2240 dd39 1cc0
00000020: 7486 1dc0 1e94 20c0 b683 dabf 9875 1fc0
00000030: dbae 1e40 264f 1d40 045f 19c0 801f 1cc0
00000040: 3e0c 22c0 3c77 1fc0 b08a 1ec0 a90a 1e40
00000050: 6ae9 2240 427e 1d40 666e 2140 4458 16c0
00000060: da2a 2040 b503 1fc0 51bf 1fc0 d8d3 1ac0
00000070: 36ba 2240 2d9d 2040 b68c 23c0 cc52 20c0
00000080: d35b 21c0 542b 2140 58e8 21c0 1921 1e40
00000090: 9bee 1d40 5ba1 1f40 d1bc 21c0 5e00 1ac0
000000a0: b65e 22c0 e5a3 2140 34f5 2040 401e 2040
000000b0: cf9c 1c40 de78 1dc0 7a2f 1ec0 0844 23c0
000000c0: a313 2240 1947 2140 8720 1e40 cc52 1f40
000000d0: 50dc 1ec0 3623 1dc0 6ab2 1f40 09d7 1dc0
000000e0: 40af 2040 14ae 2140 6f8c 21c0 5d7d 18c0
000000f0: 1fa9 21c0 88f5 2140 cced 1cc0 3e57 1e40

spatial_extractor.5.weight f4 [64]
-1.5050851 -1.5050702 -1.5050745 3.5050719 3.5050473 -1.5050602 3.5049124 -1.5050774
3.505084 3.505087 3.5050817 -1.5050795 -1.5050489 3.5050828 -1.5050858 -1.5050795
3.505086 3.505085 -1.5050721 3.5050864 -1.5050802 -1.5050851 -1.5050809 3.505085
-1.5050853 -1.5050836 3.5050848 -1.5050838 -1.505077 3.505085 -1.5050251 -1.5050834
3.5050187 3.505083 -1.5050838 3.5050728 3.5050669 3.5050833 -1.505077 -1.5050852
-1.5050559 -1.5050763 -1.5050298 -1.504242 3.505062 3.505052 3.5050802 -1.5050793
-1.5050749 -1.5050862 -1.5050861 -1.5050848 -1.5050844 -1.5050684 3.5050855 3.5049415
-1.5050576 3.5050833 3.5050645 3.5050848 3.5050726 -1.5050802 -1.5050831 -1.5050681
00000000: a1a6 c0bf 24a6 c0bf 48a6 c0bf 1953 6040
00000010: b252 6040 d0a5 c0bf 7c50 6040 60a6 c0bf
00000020: 4c53 6040 5853 6040 4253 6040 72a6 c0bf
00000030: 71a5 c0bf 4753 6040 a7a6 c0bf 72a6 c0bf
00000040: 5453 6040 5053 6040 34a6 c0bf 5653 6040
00000050: 78a6 c0bf a1a6 c0bf 7ea6 c0bf 5053 6040
00000060: a3a6 c0bf 94a6 c0bf 4f53 6040 96a6 c0bf
00000070: 5da6 c0bf 5053 6040 aaa4 c0bf 93a6 c0bf
00000080: 3a52 6040 4853 6040 96a6 c0bf 1d53 6040
00000090: 0453 6040 4953 6040 5da6 c0bf a2a6 c0bf
000000a0: aca5 c0bf 57a6 c0bf d1a4 c0bf 008b c0bf
000000b0: f052 6040 c652 6040 3c53 6040 70a6 c0bf
000000c0: 4ba6 c0bf aaa6 c0bf a9a6 c0bf 9ea6 c0bf
000000d0: 9ba6 c0bf 15a6 c0bf 5253 6040 f650 6040
000000e0: baa5 c0bf 4953 6040 fa52 6040 4f53 6040
000000f0: 1c53 6040 78a6 c0bf 90a6 c0bf 12a6 c0bf

spatial_extractor.5.bias f4 [64]
2.5050843 2.505071 -2.5050704 2.5050654 2.5050664 -2.505083 -2.5050354 -2.5050242
2.5050797 2.5050864 2.5050836 -2.505083 2.5050805 2.5050788 2.505052 2.5050724
2.5050855 2.5050852 2.5050778 2.5050864 -2.5050716 -2.5050116 -2.5050426 2.5050845
-2.505084 -2.505086 2.5050802 -2.5050833 2.5050693 -2.505083 -2.504724 -2.5050843
2.5050406 2.505077 2.5050538 2.5050817 2.5045745 2.5050817 -2.505053 -2.505084
-2.5050364 -2.505079 2.5050826 2.5050735 2.505069 2.5050764 2.5050812 2.498363
2.5050426 -2.5050855 -2.5050845 -2.5050642 -2.5050793 -2.5050774 2.5050774 -2.5050585
-2.5050712 2.5050833 2.5050774 2.5050843 2.505081 -2.5050807 2.5034778 -2.5050797
00000000: 4d53 2040 1553 2040 1353 20c0 fe52 2040
00000010: 0253 2040 4853 20c0 8052 20c0 5152 20c0
00000020: 3a53 2040 5653 2040 4a53 2040 4853 20c0
00000030: 3d53 2040 3653 2040 c652 2040 1b53 2040
00000040: 5253 2040 5153 2040 3253 2040 5653 2040
00000050: 1853 20c0 1c52 20c0 9e52 20c0 4e53 2040
00000060: 4c53 20c0 5453 20c0 3c53 2040 4953 20c0
00000070: 0e53 2040 4853 20c0 664d 20c0 4d53 20c0
00000080: 9652 2040 2e53 2040 cd52 2040 4253 2040
00000090: f34a 2040 4253 2040 ca52 20c0 4c53 20c0
000000a0: 8452 20c0 3753 20c0 4653 2040 2053 2040
000000b0: 0d53 2040 2c53 2040 4053 2040 2ee5 1f40
000000c0: 9e52 2040 5253 20c0 4e53 20c0 f952 20c0
000000d0: 3853 20c0 3053 20c0 3053 2040 e152 20c0
000000e0: 1653 20c0 4953 2040 3053 2040 4d53 2040
000000f0: 3f53 2040 3e53 20c0 fb38 2040 3a53 20c0

spatial_extractor.5.running_mean f4 [64]
-36.07735 -1.2626796 0.623433 40.72247 -20.810453 15.931759 43.45114 6.3084774
-12.045512 4.4534073 43.186367 5.074489 -39.801266 3.6144981 -43.49763 -25.140642
24.062965 8.863731 39.198345 -2.319382 4.0461774 1.4691852 -13.3103895 18.17032
-1.8763123 16.45848 43.121685 -3.938557 2.7129955 36.274933 3.6380575 3.5723934
-12.138645 3.1070893 -43.45182 -15.002431 5.7152295 18.727686 -26.98209 -17.23049
-17.491568 -10.03927 -43.06166 6.5516133 1.6209629 -13.111091 43.129288 25.945807
-2.8792124 4.3861895 -3.5556004 -43.123833 -23.757578 -4.1280103 26.51391 6.9472046
13.367384 -10.115133 -24.048887 43.22716 -3.0573313 9.533843 11.528098 -16.268536
00000000: 354f 10c2 7c9f a1bf 4e99 1f3f cfe3 2242
00000010: cf7b a6c1 7ce8 7e41 f8cd 2d42 0cdf c940
00000020: 6bba 40c1 5082 8e40 d7be 2c42 3762 a240
00000030: 7f34 1fc2 f053 6740 93fd 2dc2 0920 c9c1
00000040: f480 c041 d8d1 0d41 1bcb 1c42 c170 14c0
00000050: 497a 8140 430e bc3f 5bf7 54c1 d15c 9141
00000060: 002b f0bf f8aa 8341 9b7c 2c42 5111 7cc0
00000070: b8a1 2d40 8819 1142 efd5 6840 18a2 6440
00000080: e437 42c1 8dda 4640 aace 2dc2 f509 70c1
00000090: 29e3 b640 4dd2 9541 52db d7c1 0bd8 89c1
000000a0: bbee 8bc1 daa0 20c1 243f 2cc2 d1a6 d140
000000b0: b67b cf3f 07c7 51c1 6484 2c42 0391 cf41
000000c0: 0445 38c0 aa5b 8c40 f58e 63c0 ce7e 2cc2
000000d0: 850f bec1 a918 84c0 7d1c d441 804f de40
000000e0: cee0 5541 96d7 21c1 1f64 c0c1 9de8 2c42
000000f0: 51ab 43c0 9f8a 1841 1773 3841 f625 82c1

spatial_extractor.5.running_var f4 [64]
2398.5647 428.2352 98.4586 2368.6777 1674.8883 887.53 2378.2864 1127.5103
375.85632 220.03113 2384.1172 1407.2024 2662.4907 381.51218 2405.5916 1043.9629
680.4451 219.06367 1982.3315 904.3748 722.663 84.02601 1626.1099 2875.019
254.2052 1012.43744 2375.5828 81.908615 135.96616 2433.4097 104.69543 789.1441
384.0008 830.30585 2382.5308 1033.3486 712.61487 927.43634 1614.7056 848.25397
311.04565 509.4266 2386.8188 695.606 256.59213 493.2382 2410.7468 1729.8933
347.60788 590.7198 290.2118 2371.3157 1903.5161 585.2405 2084.422 247.6831
787.1483 601.939 1878.3948 2396.359 840.42596 632.33405 533.78656 924.9137
00000000: 09e9 1545 1b1e d643 ceea c442 d80a 1445
00000010: 6d5c d144 ece1 5d44 95a4 1445 54f0 8c44
00000020: 9ced bb43 f807 5c43 e001 1545 7ae6 af44
00000030: da67 2645 8fc1 be43 7759 1645 d07e 8244
00000040: 7d1c 2a44 4d10 5b43 9cca f744 fd17 6244
00000050: 6faa 3444 510d a842 8443 cb44 4eb0 3345
00000060: 8834 7e43 ff1b 7d44 5379 1445 36d1 a342
00000070: 56f7 0743 8e16 1845 0f64 d142 3949 4544
00000080: 1a00 c043 9393 4f44 7ee8 1445 282b 8144
00000090: 5a27 3244 eddb 6744 94d6 c944 4110 5444
000000a0: d885 9b43 9bb6 fe43 1a2d 1545 c9e6 2d44
000000b0: cb4b 8043 7d9e f643 f3ab 1645 963c d844
000000c0: cfcd ad43 11ae 1344 1c1b 9143 0d35 1445
000000d0: 84f0 ed44 644f 1244 c146 0245 e0ae 7743
000000e0: 7ec9 4444 197c 1644 a2cc ea44 bec5 1545
000000f0: 431b 5244 6115 1e44 5772 0544 7a3a 6744

temporal_extractor.0.weight f4 [128, 64, 3]
-2.4737158 -2.514463 -2.474247 -2.5058894 -2.491187 -2.5629735 -2.4756207 -2.5739076
-2.49587 -2.4837158 2.5458722 -2.5171547 -2.5614486 -2.5078356 -2.4838586 2.560549
2.5347998 2.5668516 -2.5305185 -2.4405231 -2.467405 -2.541654 -2.5381556 -2.5541782
-2.5322895 -2.4801576 -2.4592452 -2.5649014 -2.5132787 -2.5411422 -2.5675306 -2.4464064
-2.4455361 2.4352944 2.5399318 2.5419493 -2.5320818 -2.487555 -2.474702 -2.485231
-2.545392 -2.4360552 -2.5046954 -2.46523 -2.5094085 -2.5187771 2.5554872 -2.4503596
-2.5759854 -2.4475536 -2.478847 -2.438706 -2.436872 -2.5078595 -2.5714808 2.5669165
2.4515262 -2.571 -2.4822521 -2.5289695 -2.4649603 -2.5126 -2.4993234 2.4425013
2.570276 2.4557953 -2.5711432 2.522818 2.4428835 -2.5048327 -2.4973898 -2.5343852
-2.451882 -2.5124853 -2.4399815 -2.5133257 2.49179 2.440335 -2.514843 -2.5772133
-2.5539465 -2.5566864 -2.4872632 -2.5599835 2.4712982 2.5468361 2.4933882 -2.528399
-2.569388 -2.5054982 -2.5564432 2.5487227 2.4542189 2.52071 2.4710574 2.5556521
-2.5446339 -2.4981027 -2.4876175 2.4483476 2.447332 2.4577036 -2.4917154 -2.4800525
-2.5691004 -2.4881454 2.469616 2.5070372 -2.5186543 2.4717045 2.5755746 -2.499352
-2.4772701 -2.436441 -2.5139031 -2.5364702 -2.5244176 2.5200052 2.4851718 2.5100536
-2.4886947 -2.4496775 -2.5139341 2.5448751 2.5321865 2.532268 -2.557303 -2.570456
-2.5678425 -2.523208 2.450926 -2.482594 -2.4431634 -2.495266 -2.5153198 2.441043
2.4408956 2.5451221 -2.5674086 -2.5253494 -2.5139222 -2.4545264 2.4759235 -2.5741806
2.5095766 2.5071473 2.5630174 -2.4984887 -2.5365894 -2.5030594 2.436955 2.4772744
2.437663 -2.5753448 -2.5539885 -2.4529357 -2.4358711 -2.4852328 -2.4884791 -2.4475222
-2.5028653 -2.539352 -2.5234215 -2.4740763 -2.4395995 -2.455134 -2.5297875 -2.4609776
-2.4697313 -2.4658654 -2.4568949 2.4777899 2.5591946 2.5699387 -2.5339065 -2.490499
-2.4505062 -2.5737982 -2.4406853 -2.5159507 2.4407048 2.475053 2.5659006 -2.5156612
-2.472896 -2.546003 -2.5607762 2.4612823 2.4804463 2.5745902 2.4630823 2.4430346
2.4399364 2.4635959 2.537097 2.5013726 2.560691 2.520403 -2.539062 -2.5262742
-2.443057 2.5348585 -2.5274172 -2.5387096 2.4402933 -2.4901712 -2.4911222 -2.5678504
-2.523907 -2.5471091 2.4889474 2.4944737 2.4833512 2.5612187 2.4886174 2.4748576
2.4572964 2.5747583 2.4494212 2.463479 2.4541116 2.5529284 2.562346 2.4879012
-2.443983 -2.4996552 -2.449513 -2.5095286 2.531693 2.5756829 2.5376425 2.4856672
2.437648 2.4834962 2.5477805 2.49305 2.5391557 2.4479632 2.5040965 -2.4590025
2.5169196 2.4459972 2.4446177 2.4682286 2.532488 2.4958143 -2.4668045 -2.4677777
-2.4640832 2.5514388 2.5678854 2.5456738 2.481278 2.5334854 2.4440944 -2.5624986
00000000: 5c51 1ec0 f6ec 20c0 105a 1ec0 7e60 20c0
00000010: 9c6f 1fc0 c207 24c0 9270 1ec0 e7ba 24c0
00000020: 56bc 1fc0 33f5 1ec0 92ef 2240 1019 21c0
00000030: c6ee 23c0 6180 20c0 8af7 1ec0 09e0 2340
00000040: 293a 2240 4c47 2440 04f4 21c0 8831 1cc0
00000050: f7e9 1dc0 76aa 22c0 2471 22c0 a877 23c0
00000060: 0811 22c0 e7ba 1ec0 4664 1dc0 5827 24c0
00000070: 8fd9 20c0 13a2 22c0 6c52 24c0 ec91 1cc0
00000080: aa83 1cc0 dddb 1b40 3e8e 2240 4caf 2240
00000090: a10d 22c0 1a34 1fc0 8461 1ec0 060e 1fc0
000000a0: b4e7 22c0 54e8 1bc0 ee4c 20c0 54c6 1dc0
000000b0: 269a 20c0 a533 21c0 1a8d 2340 b1d2 1cc0
000000c0: f2dc 24c0 b8a4 1cc0 6ea5 1ec0 c213 1cc0
000000d0: b6f5 1bc0 c580 20c0 2493 24c0 5c48 2440
000000e0: cee5 1c40 448b 24c0 38dd 1ec0 a3da 21c0
000000f0: e9c1 1dc0 70ce 20c0 eaf4 1fc0 f151 1c40
00000100: 677f 2440 c02b 1d40 9c8d 24c0 da75 2140
00000110: 3458 1c40 2e4f 20c0 3cd5 1fc0 5e33 22c0
00000120: a2eb 1cc0 8fcc 20c0 a828 1cc0 54da 20c0
00000130: 7d79 1f40 732e 1c40 30f3 20c0 10f1 24c0
00000140: dc73 23c0 c0a0 23c0 522f 1fc0 c5d6 23c0
00000150: c029 1e40 5dff 2240 ac93 1f40 4ad1 21c0
00000160: da70 24c0 155a 20c0 c49c 23c0 461e 2340
00000170: ec11 1d40 5053 2140 ce25 1e40 ce8f 2340
00000180: 48db 22c0 eae0 1fc0 2035 1fc0 bab1 1c40
00000190: 16a1 1c40 044b 1d40 4478 1fc0 2eb9 1ec0
000001a0: 246c 24c0 c63d 1fc0 300e 1e40 4c73 2040
000001b0: a231 21c0 6830 1e40 37d6 2440 62f5 1fc0
000001c0: 988b 1ec0 a6ee 1bc0 cae3 20c0 8755 22c0
000001d0: 0f90 21c0 c447 2140 0e0d 1f40 b8a4 2040
000001e0: c646 1fc0 84c7 1cc0 4ce4 20c0 3cdf 2240
000001f0: 580f 2240 ae10 2240 daaa 23c0 5a82 24c0
00000200: 8857 24c0 3d7c 21c0 f9db 1c40 d2e2 1ec0
00000210: ca5c 1cc0 70b2 1fc0 00fb 20c0 0c3a 1c40
00000220: a237 1c40 48e3 2240 6c50 24c0 539f 21c0
00000230: 1ae4 20c0 f616 1dc0 8875 1e40 60bf 24c0
00000240: e79c 2040 1a75 2040 7a08 2440 3de7 1fc0
00000250: 7b57 22c0 2032 20c0 12f7 1b40 aa8b 1e40
00000260: ac02 1c40 73d2 24c0 8c74 23c0 e6fc 1cc0
00000270: 50e5 1bc0 0e0e 1fc0 3e43 1fc0 34a4 1cc0
00000280: f22e 20c0 be84 22c0 bd7f 21c0 4457 1ec0
00000290: 6622 1cc0 ea20 1dc0 0ae8 21c0 a880 1dc0
000002a0: 1410 1ec0 bdd0 1dc0 c43d 1dc0 1c94 1e40
000002b0: d8c9 2340 e079 2440 862b 22c0 5664 1fc0
000002c0: 18d5 1cc0 1cb9 24c0 3034 1cc0 5605 21c0
000002d0: 8234 1c40 4567 1e40 b737 2440 9800 21c0
000002e0: ee43 1ec0 b7f1 22c0 c2e3 23c0 a685 1d40
000002f0: a2bf 1e40 16c6 2440 24a3 1d40 ae5a 1c40
00000300: eb27 1c40 8eab 1d40 cc5f 2240 7d16 2040
00000310: 5de2 2340 484e 2140 fe7f 22c0 7aae 21c0
00000320: 0c5b 1cc0 1f3b 2240 34c1 21c0 387a 22c0
00000330: c42d 1c40 f75e 1fc0 8c6e 1fc0 a957 24c0
00000340: b187 21c0 d603 23c0 ea4a 1f40 75a5 1f40
00000350: 3aef 1e40 02eb 2340 8245 1f40 1164 1e40
00000360: 5844 1d40 d7c8 2440 51c3 1c40 a4a9 1d40
00000370: 2a10 1d40 2e63 2340 7afd 2340 c639 1f40
00000380: 386a 1cc0 5afa 1fc0 d2c4 1cc0 1e9c 20c0
00000390: 4207 2240 fdd7 2440 bc68 2240 2c15 1f40
000003a0: 6d02 1c40 9af1 1e40 d60e 2340 228e 1f40
000003b0: 8781 2240 6eab 1c40 1e43 2040 4c60 1dc0
000003c0: 3615 2140 388b 1c40 9e74 1c40 75f7 1d40
000003d0: 4914 2240 6cbb 1f40 20e0 1dc0 12f0 1dc0
000003e0: 8ab3 1dc0 c64a 2340 3c58 2440 52ec 2240
000003f0: 42cd 1e40 a024 2240 0b6c 1c40 faff 23c0

temporal_extractor.0.bias f4 [128]
1.8217736 -0.22900751 1.6418333 1.5939511 1.4734292 -1.1467313 -0.6536187 -1.4457476
-1.1343768 0.75339055 1.2910786 -2.2698553 -1.8231839 0.05903916 2.172985 0.26448938
-0.80132294 -0.5910642 1.2171139 0.47545895 1.1576989 -1.5973383 -0.5496125 0.16237661
0.87217015 0.87342554 0.35522327 -0.67826974 1.7867596 -1.4419482 -0.4601454 2.046457
2.3483536 -1.7457922 1.9738119 0.13950868 -0.30482876 2.0889726 -1.3875781 -0.23853433
-0.9794586 1.147776 -2.316447 1.0358955 0.14587118 -0.56464815 1.8091495 -0.9423797
1.2027048 -0.5328829 -0.21102443 -0.35048372 0.14247088 -0.040209815 -1.6951306 -0.93629813
0.31150186 0.9070018 -1.0173674 0.91429234 1.386714 -1.9804425 -0.2321054 -1.0140526
-0.09090437 -0.86307013 -0.9892894 -1.088772 -1.4888508 -1.2724793 -1.4016834 0.025437018
-2.1104102 0.23231895 -0.0545945 -0.71806026 -1.7157879 -1.995435 1.0611868 2.067299
1.508564 -0.96719956 1.5003242 -1.4458163 -1.74796 1.5383472 -1.0518825 0.06818135
1.4829546 -0.750191 -1.891104 1.2172551 0.12293707 1.6041045 -1.2474655 -1.2752025
-0.9909524 1.6440098 1.6612431 -0.17357004 -0.053767025 -0.097971246 0.63580203 -0.15132764
1.7760289 1.9970694 1.0072353 1.0083491 0.31091595 1.4820554 -1.6737413 -1.4767317
-1.1288904 -0.9989145 0.036588766 -1.4698753 -1.4189315 0.52589947 -1.7977644 -0.77291447
-0.9962213 -1.3134656 -0.06005692 1.732414 -0.3828354 -2.2161107 -0.012304157 0.7098882
00000000: e12f e93f f280 6abe 9827 d23f 9706 cc3f
00000010: 5499 bc3f 17c8 92bf 8e53 27bf 420e b9bf
00000020: 4233 91bf 34de 403f 1042 a53f 4f45 11c0
00000030: 175e e9bf 0cd3 713d 3012 0b40 276b 873e
00000040: 8023 4dbf fc4f 17bf 63ca 9b3f 5b6f f33e
00000050: 7a2f 943f 9575 ccbf 68b3 0cbf 0e46 263e
00000060: 8b46 5f3f d198 5f3f d3df b53e 16a3 2dbf
00000070: 8ab4 e43f c291 b8bf 2e98 ebbe 27f9 0240
00000080: 6d4b 1640 1e76 dfbf dea5 fc3f 5ddb 0e3e
00000090: 8412 9cbe bab1 0540 299c b1bf 5842 74be
000000a0: ccbd 7abf 53ea 923f ab40 14c0 3998 843f
000000b0: 415f 153e c88c 10bf 3692 e73f cc3f 71bf
000000c0: 3bf2 993f 046b 08bf ca16 58be 9a72 b3be
000000d0: e3e3 113e 0cb3 24bd 0afa d8bf 3cb1 6fbf
000000e0: 2c7d 9f3e 4531 683f 1839 82bf 100f 6a3f
000000f0: d87f b13f 247f fdbf 0aad 6dbe 7acc 81bf
00000100: 122c babd 2af2 5cbf 1242 7dbf e25c 8bbf
00000110: aa92 bebf 9ae0 a2bf 5d6a b3bf 4b61 d03c
00000120: f610 07c0 05e5 6d3e 7c9e 5fbd ccd2 37bf
00000130: f09e dbbf 6a6a ffbf f8d4 873f a04e 0440
00000140: a018 c13f 649a 77bf a00a c03f 8210 b9bf
00000150: 27bd dfbf 90e8 c43f 16a4 86bf aaa2 8b3d
00000160: 75d1 bd3f 840c 40bf b20f f2bf 04cf 9b3f
00000170: 6ec6 fb3d 4c53 cd3f f3ac 9fbf d639 a3bf
00000180: 0eaf 7dbf ea6e d23f 9da3 d43f 58bc 31be
00000190: d03a 5cbd 26a5 c8bd ecc3 223f a2f5 1abe
000001a0: ea54 e33f f89f ff3f 16ed 803f 9511 813f
000001b0: 6030 9f3e feb3 bd3f 283d d6bf 8b05 bdbf
000001c0: 7b7f 90bf dcb8 7fbf 1ade 153d e024 bcbf
000001d0: 8c9f b5bf 59a1 063f 251d e6bf b9dd 45bf
000001e0: 5c08 7fbf a41f a8bf 3ffe 75bd bebf dd3f
000001f0: 0003 c4be c2d4 0dc0 6097 49bc 3cbb 353f

temporal_extractor.1.weight f4 [128]
-1.505086 -1.5050652 -1.505086 -1.5050821 3.5050793 3.5050707 3.5050793 -1.5050728
3.5050845 3.5050724 -1.5050836 -1.505084 3.505086 -1.5050825 -1.505085 -1.5050775
-1.5050828 3.5050862 -1.5050833 3.505063 3.5050855 -1.5050862 -1.5050589 3.5050614
3.5050833 -1.5050848 -1.5050822 -1.5050843 -1.5050846 3.5050817 -1.5050858 -1.505084
-1.5050848 3.505085 3.5050855 3.5050836 -1.5050803 3.5050855 3.505085 3.5050774
-1.5050821 -1.5050809 -1.5050855 -1.5050415 3.5050833 -1.505085 -1.5050862 -1.505083
-1.5050818 3.5050735 3.5050855 3.5050802 3.5050192 -1.5050225 3.5050824 3.5050845
3.505081 -1.5050849 -1.5050845 3.5050845 -1.5050825 3.5050855 3.505085 3.5050764
-1.5050392 3.5050855 3.5050845 -1.5050834 -1.5050851 3.5050688 -1.5050851 3.5050855
-1.5050845 3.505084 -1.5050428 3.5050845 3.5050855 3.505085 3.505083 3.5050855
3.505083 -1.5050858 -1.5050848 -1.5050857 -1.5050824 -1.505079 3.5050826 3.5050583
3.5050817 3.5050797 3.5050852 -1.5050848 3.5050588 3.5050788 -1.5050818 -1.5050858
-1.5050853 -1.5050856 -1.5050861 3.5050716 -1.5050738 3.5050845 -1.5050825 -1.5050828
-1.5050822 -1.5050857 3.5050855 -1.5050848 -1.505066 -1.5050826 -1.5050852 -1.5050827
3.5050845 -1.5050855 3.505022 -1.5050821 3.5050845 3.5050836 3.5050857 3.5050864
-1.5050851 3.5050836 3.5050845 -1.5050824 -1.5050826 3.5050836 3.5050123 -1.5050842
00000000: a8a6 c0bf faa5 c0bf a8a6 c0bf 88a6 c0bf
00000010: 3853 6040 1453 6040 3853 6040 3aa6 c0bf
00000020: 4e53 6040 1b53 6040 94a6 c0bf 98a6 c0bf
00000030: 5453 6040 8ba6 c0bf a0a6 c0bf 61a6 c0bf
00000040: 8ea6 c0bf 5553 6040 92a6 c0bf f452 6040
00000050: 5253 6040 aaa6 c0bf c5a5 c0bf ed52 6040
00000060: 4953 6040 9ea6 c0bf 89a6 c0bf 9aa6 c0bf
00000070: 9da6 c0bf 4253 6040 a7a6 c0bf 98a6 c0bf
00000080: 9ea6 c0bf 5053 6040 5253 6040 4a53 6040
00000090: 79a6 c0bf 5253 6040 5053 6040 3053 6040
000000a0: 88a6 c0bf 7ea6 c0bf a4a6 c0bf 33a5 c0bf
000000b0: 4953 6040 a0a6 c0bf aaa6 c0bf 8fa6 c0bf
000000c0: 85a6 c0bf 2053 6040 5253 6040 3c53 6040
000000d0: 3c52 6040 94a4 c0bf 4553 6040 4e53 6040
000000e0: 3f53 6040 9fa6 c0bf 9ca6 c0bf 4e53 6040
000000f0: 8ba6 c0bf 5253 6040 5053 6040 2c53 6040
00000100: 20a5 c0bf 5253 6040 4e53 6040 93a6 c0bf
00000110: a1a6 c0bf 0c53 6040 a1a6 c0bf 5253 6040
00000120: 9ca6 c0bf 4c53 6040 3ea5 c0bf 4e53 6040
00000130: 5253 6040 5053 6040 4853 6040 5253 6040
00000140: 4853 6040 a7a6 c0bf 9ea6 c0bf a6a6 c0bf
00000150: 8aa6 c0bf 6ea6 c0bf 4653 6040 e052 6040
00000160: 4253 6040 3a53 6040 5153 6040 9ea6 c0bf
00000170: e252 6040 3653 6040 85a6 c0bf a7a6 c0bf
00000180: a3a6 c0bf a5a6 c0bf a9a6 c0bf 1853 6040
00000190: 42a6 c0bf 4e53 6040 8ba6 c0bf 8ea6 c0bf
000001a0: 89a6 c0bf a6a6 c0bf 5253 6040 9ea6 c0bf
000001b0: 01a6 c0bf 8ca6 c0bf a2a6 c0bf 8da6 c0bf
000001c0: 4e53 6040 a4a6 c0bf 4852 6040 88a6 c0bf
000001d0: 4e53 6040 4a53 6040 5353 6040 5653 6040
000001e0: a1a6 c0bf 4a53 6040 4e53 6040 8aa6 c0bf
000001f0: 8ca6 c0bf 4a53 6040 1f52 6040 99a6 c0bf

temporal_extractor.1.bias f4 [128]
-2.5050864 -2.505066 -2.505086 -2.505083 2.5050821 2.5050783 2.5050807 -2.505081
2.5050845 2.505078 -2.5050857 -2.505085 2.505086 -2.5050826 -2.505086 -2.5050783
-2.5050836 2.5050862 -2.5050833 2.5050664 2.5050855 -2.5050864 -2.5050588 2.5050745
2.5050836 -2.5050845 -2.5050833 -2.5050845 -2.5050845 2.5050836 -2.505086 -2.5050845
-2.5050855 2.5050862 2.505086 2.5050836 -2.505084 2.5050855 2.5050852 2.5050778
-2.5050824 -2.5050836 -2.505086 -2.5050554 2.505084 -2.505085 -2.5050864 -2.5050836
-2.5050843 2.5050752 2.5050857 2.5050817 2.505026 -2.5050235 2.5050826 2.5050845
2.5050812 -2.5050855 -2.5050848 2.505085 -2.505085 2.505086 2.505085 2.5050788
-2.5050402 2.505085 2.5050855 -2.505084 -2.505086 2.505077 -2.5050855 2.5050855
-2.505086 2.5050857 -2.5050569 2.505085 2.505086 2.5050852 2.5050855 2.5050862
2.505085 -2.5050857 -2.5050855 -2.505086 -2.505084 -2.5050845 2.5050845 2.5050588
2.505084 2.505081 2.505086 -2.5050845 2.5050611 2.5050807 -2.5050833 -2.5050855
-2.5050862 -2.505086 -2.5050857 2.5050726 -2.5050762 2.5050845 -2.5050836 -2.505083
-2.5050828 -2.505086 2.505086 -2.505085 -2.5050693 -2.5050855 -2.5050862 -2.5050836
2.5050845 -2.505086 2.5050335 -2.5050826 2.5050852 2.5050836 2.505086 2.505086
-2.5050857 2.505084 2.5050852 -2.5050836 -2.5050826 2.505085 2.5050187 -2.5050843
00000000: 5653 20c0 0053 20c0 5453 20c0 4853 20c0
00000010: 4453 2040 3453 2040 3e53 2040 3f53 20c0
00000020: 4e53 2040 3353 2040 5353 20c0 5053 20c0
00000030: 5453 2040 4653 20c0 5453 20c0 3453 20c0
00000040: 4a53 20c0 5553 2040 4953 20c0 0253 2040
00000050: 5253 2040 5653 20c0 e252 20c0 2453 2040
00000060: 4a53 2040 4e53 20c0 4953 20c0 4e53 20c0
00000070: 4e53 20c0 4a53 2040 5453 20c0 4e53 20c0
00000080: 5253 20c0 5553 2040 5453 2040 4a53 2040
00000090: 4c53 20c0 5253 2040 5153 2040 3253 2040
000000a0: 4553 20c0 4a53 20c0 5453 20c0 d452 20c0
000000b0: 4c53 2040 5053 20c0 5653 20c0 4a53 20c0
000000c0: 4d53 20c0 2753 2040 5353 2040 4253 2040
000000d0: 5952 2040 4e52 20c0 4653 2040 4e53 2040
000000e0: 4053 2040 5253 20c0 4f53 20c0 5053 2040
000000f0: 5053 20c0 5453 2040 5053 2040 3653 2040
00000100: 9452 20c0 5053 2040 5253 2040 4c53 20c0
00000110: 5453 20c0 2e53 2040 5253 20c0 5253 2040
00000120: 5453 20c0 5353 2040 da52 20c0 5053 2040
00000130: 5453 2040 5153 2040 5253 2040 5553 2040
00000140: 5053 2040 5353 20c0 5253 20c0 5453 20c0
00000150: 4c53 20c0 4e53 20c0 4e53 2040 e252 2040
00000160: 4c53 2040 3f53 2040 5453 2040 4e53 20c0
00000170: ec52 2040 3e53 2040 4953 20c0 5253 20c0
00000180: 5553 20c0 5453 20c0 5353 20c0 1c53 2040
00000190: 2b53 20c0 4e53 2040 4a53 20c0 4853 20c0
000001a0: 4753 20c0 5453 20c0 5453 2040 5053 20c0
000001b0: 0e53 20c0 5253 20c0 5553 20c0 4a53 20c0
000001c0: 4e53 2040 5453 20c0 7852 2040 4653 20c0
000001d0: 5153 2040 4a53 2040 5453 2040 5453 2040
000001e0: 5353 20c0 4c53 2040 5153 2040 4a53 20c0
000001f0: 4653 20c0 5053 2040 3a52 2040 4d53 20c0

temporal_extractor.1.running_mean f4 [128]
-13.136453 6.639255 -2.2805882 6.4254527 -12.56918 10.688571 13.09104 -6.8230705
14.118046 -5.7345357 9.337137 -6.8118515 -15.829636 15.56779 -12.373056 -14.644827
-10.088068 4.5075173 16.85144 8.734468 4.3154354 -2.487027 -13.45135 7.094958
-5.025854 -16.953615 6.2884235 -4.262982 -3.2644665 -9.919473 17.000633 11.683115
-7.918821 -7.952237 -7.588714 9.431762 5.8570323 9.051358 -9.898786 -5.4818206
-5.9628077 -6.1370673 -24.144428 -11.636304 -12.496019 -6.7822857 -11.765442 3.152935
11.345335 13.058166 -15.06061 -10.727808 -3.0422313 -23.80883 13.98201 -5.795146
-18.240534 -10.420713 12.618655 -5.270196 -6.9047728 -14.275608 11.281533 6.6159153
16.311827 -5.725427 -6.348412 2.2679143 15.185534 -11.594483 14.797205 15.815553
10.09549 7.7150073 -7.6276803 11.570459 13.092493 -11.070905 6.477717 8.031061
-3.2559004 -3.4978518 6.7519927 -4.5464067 10.240637 8.24596 -11.24234 8.301994
-6.288176 -11.648833 10.413795 0.6690642 5.6477833 -4.1486073 -6.7054105 -0.34751853
7.1794624 -6.59767 -2.0531986 2.3279042 -9.038604 10.092316 10.050023 4.853714
-4.490658 5.5498247 -1.2159101 -7.280853 10.000036 -5.3782997 -10.877817 -6.114659
-18.171535 -10.699628 6.8965316 11.005877 -6.226008 -11.23536 -9.679192 22.91882
-4.0013475 -6.7730103 -11.762734 -2.2130816 2.6633868 -5.9206767 -13.144255 -9.206679
00000000: e92e 52c1 c774 d440 28f5 11c0 4f9d cd40
00000010: 5c1b 49c1 6304 2b41 e674 5141 9856 dac0
00000020: 84e3 6141 5181 b7c0 ea64 1541 b0fa d9c0
00000030: 3046 7dc1 ab15 7941 0af8 45c1 3651 6ac1
00000040: ba68 21c1 953d 9040 c0cf 8641 62c0 0b41
00000050: 0c18 8a40 732b 1fc0 bb38 57c1 e509 e340
00000060: ccd3 a0c0 01a1 87c1 c43a c940 596a 88c0
00000070: 05ed 50c0 29b6 1ec1 4c01 8841 0aee 3a41
00000080: fb66 fdc0 ba78 fec0 bfd6 f2c0 7fe8 1641
00000090: cf6c bb40 5dd2 1041 6d61 1ec1 136b afc0
000000a0: 52cf bec0 db62 c4c0 ca27 c1c1 4d2e 3ac1
000000b0: b2ef 47c1 7c08 d9c0 403f 3cc1 b0c9 4940
000000c0: 7e86 3541 3fee 5041 42f8 70c1 1aa5 2bc1
000000d0: ebb3 42c0 7c78 bec1 50b6 5f41 d671 b9c0
000000e0: 9dec 91c1 3ebb 26c1 03e6 4941 72a5 a8c0
000000f0: e6f3 dcc0 e468 64c1 2981 3441 94b5 d340
00000100: 9f7e 8241 b336 b7c0 3126 cbc0 8225 1140
00000110: f2f7 7241 0183 39c1 5ac1 6c41 810c 7d41
00000120: 2187 2141 57e1 f640 f515 f4c0 9a20 3941
00000130: da7a 5141 6d22 31c1 7549 cf40 3a7f 0041
00000140: ac60 50c0 cedc 5fc0 5310 d840 2a7c 91c0
00000150: a6d9 2341 74ef 0341 a0e0 33c1 f8d4 0441
00000160: bd38 c9c0 9f61 3ac1 e89e 2641 cb47 2b3f
00000170: a4ba b440 64c1 84c0 b992 d6c0 f3ed b1be
00000180: 28be e540 1d20 d3c0 9b67 03c0 62fc 1440
00000190: 1f9e 10c1 207a 2141 e5cc 2041 a051 9b40
000001a0: 78b3 8fc0 2a98 b140 f1a2 9bbf bffc e8c0
000001b0: 2600 2041 081b acc0 8a0b 2ec1 49ab c3c0
000001c0: 4e5f 91c1 ad31 2bc1 63b0 dc40 1218 3041
000001d0: 753b c7c0 09c4 33c1 f8dd 1ac1 be59 b741
000001e0: 0a0b 80c0 80bc d8c0 2934 3cc1 21a3 0dc0
000001f0: ee74 2a40 2f76 bdc0 de4e 52c1 8f4e 13c1

temporal_extractor.1.running_var f4 [128]
314.9782 367.9118 156.90665 352.361 299.29623 364.66165 314.19965 309.89444
275.44287 330.63135 298.253 328.12592 376.4151 328.62668 294.54327 352.32578
312.2788 127.249245 380.47742 306.7562 275.84286 232.04224 247.30836 287.6936
130.31122 321.38422 330.26202 116.15583 306.7064 366.4943 286.90594 353.4931
333.91016 344.90787 295.04272 226.463 271.88303 307.40747 64.86532 86.00983
292.6384 338.3948 323.36942 359.88287 254.73262 363.11743 308.7286 270.43274
316.4253 241.45221 115.48077 297.07742 256.14697 317.02002 304.333 88.30507
352.5599 295.98395 357.6298 123.35935 375.58163 388.18918 289.4342 337.72614
159.03056 49.960716 338.68372 291.84103 263.55307 257.08902 195.32727 91.83155
367.60498 338.54535 340.5655 302.4511 252.29688 353.25958 165.35718 328.77698
204.75262 126.92244 334.08044 355.4071 330.5068 318.3332 302.3379 274.42776
305.06317 321.3059 319.03665 87.227165 328.7709 350.78506 315.05435 93.54607
334.90356 353.9272 159.96858 117.61335 386.79343 69.50826 284.7323 92.47108
312.65143 329.33377 115.462036 299.80356 286.89316 167.708 334.49088 295.66248
307.93356 298.6697 366.74008 275.256 295.19193 329.28824 360.92944 378.88867
340.7458 401.85696 319.92578 250.70026 147.3926 96.55238 61.57048 332.79498
00000000: 367d 9d43 b6f4 b743 1ae8 1c43 352e b043
00000010: eba5 9543 b154 b643 8e19 9d43 7df2 9a43
00000020: b0b8 8943 d050 a543 6220 9543 1e10 a443
00000030: 2235 bc43 3750 a443 8a45 9343 b329 b043
00000040: b023 9c43 9d7f fe42 1c3d be43 cb60 9943
00000050: e3eb 8943 d00a 6843 f14e 7743 c8d8 8f43
00000060: ac4f 0243 2eb1 a043 8a21 a543 c94f e842
00000070: 6b5a 9943 453f b743 f673 8f43 1ebf b043
00000080: 80f4 a643 3574 ac43 7885 9343 8776 6243
00000090: 07f1 8743 28b4 9943 0bbb 8142 0805 ac42
000000a0: b751 9243 8932 a943 49af a143 02f1 b343
000000b0: 8dbb 7e43 088f b543 435d 9a43 6437 8743
000000c0: 7036 9e43 c473 7143 27f6 e642 e989 9443
000000d0: d012 8043 9082 9e43 a02a 9843 329c b042
000000e0: ab47 b043 f2fd 9343 9dd0 b243 fdb7 f642
000000f0: 73ca bb43 3718 c243 94b7 9043 f2dc a843
00000100: d307 1f43 c6d7 4742 8457 a943 a7eb 9143
00000110: cbc6 8343 658b 8043 c853 4343 c1a9 b742
00000120: 70cd b743 ce45 a943 6248 aa43 be39 9743
00000130: 004c 7c43 3aa1 b043 705b 2543 7463 a443
00000140: acc0 4c43 4ad8 fd42 4c0a a743 1cb4 b143
00000150: df40 a543 a62a 9f43 402b 9743 c136 8943
00000160: 1688 9843 28a7 a043 b184 9f43 4f74 ae42
00000170: ad62 a443 7d64 af43 f586 9d43 9617 bb42
00000180: a873 a743 aef6 b043 f5f7 1f43 093a eb42
00000190: 8f65 c143 3b04 8b42 bc5d 8e43 31f1 b842
000001a0: 6253 9c43 b9aa a443 90ec e642 dbe6 9543
000001b0: 5372 8f43 3fb5 2743 d53e a743 ccd4 9343
000001c0: 7ff7 9943 b955 9543 bb5e b743 c5a0 8943
000001d0: 9198 9343 e5a4 a443 f876 b443 c071 bd43
000001e0: 765f aa43 b1ed c843 80f6 9f43 44b3 7a43
000001f0: 8164 1343 d21a c142 2c48 7642 c265 a643

clasifier.weight f4 [1, 128]
2.4214787 2.4992146 2.4250429 2.4793131 2.5236695 2.5159373 2.5195065 2.4906926
2.5401077 2.5169997 2.449139 2.4559352 2.5888562 2.4795222 2.4434144 2.4938908
2.4679055 2.587915 2.4749465 2.5098186 2.5609107 2.420586 2.5012827 2.511941
2.534895 2.4642358 2.4784424 2.4624794 2.463396 2.5315504 2.4313488 2.463715
2.441842 2.5924187 2.591507 2.5310225 2.4757113 2.5633254 2.5557122 2.5156097
2.4838805 2.479178 2.4242916 2.5021348 2.5389223 2.4618204 2.421332 2.4771366
2.4766269 2.5175934 2.5761409 2.526068 2.506863 2.5035145 2.5321198 2.5425932
2.5244274 2.4551854 2.4582372 2.5461829 2.4510098 2.5850096 2.5511026 2.5167527
2.5026047 2.5566916 2.566029 2.4695973 2.4342775 2.5149322 2.4475532 2.5745947
2.4473372 2.567061 2.5020175 2.559649 2.5735202 2.5632858 2.5520368 2.5878186
2.5449667 2.4385052 2.4384618 2.422921 2.4639575 2.4770098 2.5392268 2.5086465
2.5365472 2.5250425 2.5680146 2.4647915 2.5089471 2.5219915 2.4601142 2.4404535
2.4187183 2.4366002 2.4213424 2.5117693 2.4962823 2.5452836 2.4757752 2.4823794
2.4775596 2.4206927 2.5724897 2.462757 2.4987502 2.4647307 2.4263504 2.4810715
2.5519533 2.440795 2.5071025 2.4790854 2.5562086 2.5392575 2.5856862 2.591032
2.4480197 2.544125 2.5683887 2.4821775 2.4841619 2.547059 2.50667 2.4681668
00000000: 82f9 1a40 22f3 1f40 e733 1b40 11ad 1e40
00000010: cd83 2140 1e05 2140 983f 2140 8267 1f40
00000020: 2091 2240 8616 2140 b2be 1c40 0b2e 1d40
00000030: d2af 2540 7eb0 1e40 e760 1c40 e89b 1f40
00000040: 2af2 1d40 66a0 2540 8665 1e40 dea0 2040
00000050: f6e5 2340 e2ea 1a40 0415 2040 a4c3 2040
00000060: b83b 2240 0ab6 1d40 cd9e 1e40 4399 1d40
00000070: 48a8 1d40 ec04 2240 389b 1b40 82ad 1d40
00000080: 2447 1c40 30ea 2540 40db 2540 46fc 2140
00000090: 0e72 1e40 860d 2440 ca90 2340 c0ff 2040
000000a0: e6f7 1e40 daaa 1e40 9827 1b40 fa22 2040
000000b0: b47d 2240 778e 1d40 1af7 1a40 6889 1e40
000000c0: 0e81 1e40 4020 2140 7edf 2440 19ab 2140
000000d0: 7270 2040 9539 2040 400e 2240 d9b9 2240
000000e0: 3890 2140 c221 1d40 c253 1d40 a9f4 2240
000000f0: 58dd 1c40 cc70 2540 4445 2340 7a12 2140
00000100: ad2a 2040 d6a0 2340 d239 2440 e20d 1e40
00000110: 34cb 1b40 a6f4 2040 b6a4 1c40 29c6 2440
00000120: 2ca1 1c40 ba4a 2440 0e21 2040 4ad1 2340
00000130: 8eb4 2440 e00c 2440 9254 2340 d29e 2540
00000140: bce0 2240 7810 1c40 c20f 1c40 2311 1b40
00000150: 7bb1 1d40 5487 1e40 b182 2240 aa8d 2040
00000160: ca56 2240 4c9a 2140 5a5a 2440 25bf 1d40
00000170: 9792 2040 4f68 2140 8372 1d40 6430 1c40
00000180: 48cc 1a40 42f1 1b40 46f7 1a40 d4c0 2040
00000190: 17c3 1f40 ede5 2240 1a73 1e40 4edf 1e40
000001a0: 5690 1e40 a1ec 1a40 aca3 2440 d09d 1d40
000001b0: 86eb 1f40 26be 1d40 5349 1b40 e0c9 1e40
000001c0: 3453 2340 fc35 1c40 5e74 2040 56a9 1e40
000001d0: ec98 2340 3283 2240 e27b 2540 78d3 2540
000001e0: 5bac 1c40 f2d2 2240 7b60 2440 ffdb 1e40
000001f0: 82fc 1e40 0403 2340 486d 2040 72f6 1d40
